resources_downloaded/ad/ad_medium_int8_vela_H256.tflite (tflite, 479600 bytes, 2 tensors)

main_split_1_command_stream u1 [3580]
00000000: 434f 5031 0100 1000 0830 0000 0000 0610
00000010: 0500 0000 0500 0000 0500 0000 0200 7703
00000020: 3001 0000 3040 0000 a070 0000 3101 0100
00000030: 3140 0000 7014 0300 3240 0000 a001 0000
00000040: 1000 0000 0f01 0100 0040 0000 0000 0300
00000050: 0140 0000 0000 0000 0240 0000 0000 0000
00000060: 0340 0000 0000 0000 0b01 1f00 0c01 1f00
00000070: 0a01 1f00 0401 0000 0640 0000 0100 0000
00000080: 0540 0000 2000 0000 0440 0000 0100 0000
00000090: 0901 0b00 0501 0100 0701 0000 0001 0100
000000a0: 0101 0100 0301 0100 0201 0100 1f01 0100
000000b0: 1040 0000 0000 0000 1140 0000 0000 0000
000000c0: 1240 0000 0000 0000 1340 0000 0000 0000
000000d0: 1b01 1f00 1c01 1f00 1a01 1f00 1201 1f00
000000e0: 1101 1f00 1301 0f00 1640 0000 0002 0000
000000f0: 1540 0000 0018 0000 1440 0000 1000 0000
67 79 80 49 1 0 16 0
8 48 0 0 0 0 6 16
5 0 0 0 5 0 0 0
5 0 0 0 2 0 119 3
48 1 0 0 48 64 0 0
160 112 0 0 49 1 1 0
49 64 0 0 112 20 3 0
50 64 0 0 160 1 0 0
16 0 0 0 15 1 1 0
0 64 0 0 0 0 3 0
1 64 0 0 0 0 0 0
2 64 0 0 0 0 0 0
3 64 0 0 0 0 0 0
11 1 31 0 12 1 31 0
10 1 31 0 4 1 0 0
6 64 0 0 1 0 0 0
5 64 0 0 32 0 0 0
4 64 0 0 1 0 0 0
9 1 11 0 5 1 1 0
7 1 0 0 0 1 1 0
1 1 1 0 3 1 1 0
2 1 1 0 31 1 1 0
16 64 0 0 0 0 0 0
17 64 0 0 0 0 0 0
18 64 0 0 0 0 0 0
19 64 0 0 0 0 0 0
27 1 31 0 28 1 31 0
26 1 31 0 18 1 31 0
17 1 31 0 19 1 15 0
22 64 0 0 0 2 0 0
21 64 0 0 0 24 0 0
20 64 0 0 16 0 0 0

main_split_1_flash u1 [474848]
00000000: 0000 0000 0000 0000 0000 0000 0000 0000
00000010: 0000 0000 0000 0000 0000 0000 0000 0000
00000020: 0000 0000 0000 0000 0000 0000 0000 0000
00000030: 0000 0000 0000 0000 0000 0000 0000 0000
00000040: 0000 0000 0000 0000 0000 0000 0000 0000
00000050: 0000 0000 0000 0000 0000 0000 0000 0000
00000060: 0000 0000 0000 0000 0000 0000 0000 0000
00000070: 0000 0000 0000 0000 0000 0000 0000 0000
00000080: 0000 0000 0000 0000 0000 0000 0000 0000
00000090: 0000 0000 0000 0000 0000 0000 0000 0000
000000a0: 0000 0000 0000 0000 0000 0000 0000 0000
000000b0: 0000 0000 0000 0000 0000 0000 0000 0000
000000c0: 0000 0000 0000 0000 0000 0000 0000 0000
000000d0: 0000 0000 0000 0000 0000 0000 0000 0000
000000e0: 0000 0000 0000 0000 0000 0000 0000 0000
000000f0: 0000 0000 0000 0000 0000 0000 0000 0000
0 0 0 0 0 0 0 0
0 0 0 0 0 0 0 0
0 0 0 0 0 0 0 0
0 0 0 0 0 0 0 0
0 0 0 0 0 0 0 0
0 0 0 0 0 0 0 0
0 0 0 0 0 0 0 0
0 0 0 0 0 0 0 0
0 0 0 0 0 0 0 0
0 0 0 0 0 0 0 0
0 0 0 0 0 0 0 0
0 0 0 0 0 0 0 0
0 0 0 0 0 0 0 0
0 0 0 0 0 0 0 0
0 0 0 0 0 0 0 0
0 0 0 0 0 0 0 0
0 0 0 0 0 0 0 0
0 0 0 0 0 0 0 0
0 0 0 0 0 0 0 0
0 0 0 0 0 0 0 0
0 0 0 0 0 0 0 0
0 0 0 0 0 0 0 0
0 0 0 0 0 0 0 0
0 0 0 0 0 0 0 0
0 0 0 0 0 0 0 0
0 0 0 0 0 0 0 0
0 0 0 0 0 0 0 0
0 0 0 0 0 0 0 0
0 0 0 0 0 0 0 0
0 0 0 0 0 0 0 0
0 0 0 0 0 0 0 0
0 0 0 0 0 0 0 0
