resources_downloaded/vww/vww4_128_128_INT8_vela_H128.tflite (tflite, 389008 bytes, 10 tensors)

main_split_1_command_stream u1 [1668]
67 79 80 49 1 0 16 0
7 24 0 0 0 0 6 16
5 0 0 0 5 0 0 0
5 0 0 0 2 0 153 1
48 1 0 0 48 64 0 0
192 3 0 0 49 1 1 0
49 64 0 0 0 64 0 0
50 64 0 0 224 0 0 0
16 0 0 0 15 1 1 0
0 64 0 0 0 0 0 0
1 64 0 0 0 0 0 0
2 64 0 0 0 0 0 0
3 64 0 0 0 0 0 0
11 1 127 0 12 1 127 0
10 1 63 0 4 1 1 0
6 64 0 0 1 0 0 0
5 64 0 0 128 0 0 0
4 64 0 0 2 0 0 0
9 1 186 255 5 1 1 0
7 1 0 0 0 1 0 0
1 1 0 0 3 1 1 0
2 1 1 0 31 1 1 0
16 64 0 0 0 0 1 0
17 64 0 0 0 0 0 0
18 64 0 0 0 0 0 0
19 64 0 0 0 0 0 0
27 1 63 0 28 1 63 0
26 1 63 0 18 1 63 0
17 1 63 0 19 1 7 0
22 64 0 0 0 4 0 0
21 64 0 0 0 4 0 0
20 64 0 0 16 0 0 0
00000000: 434f 5031 0100 1000 0718 0000 0000 0610
00000010: 0500 0000 0500 0000 0500 0000 0200 9901
00000020: 3001 0000 3040 0000 c003 0000 3101 0100
00000030: 3140 0000 0040 0000 3240 0000 e000 0000
00000040: 1000 0000 0f01 0100 0040 0000 0000 0000
00000050: 0140 0000 0000 0000 0240 0000 0000 0000
00000060: 0340 0000 0000 0000 0b01 7f00 0c01 7f00
00000070: 0a01 3f00 0401 0100 0640 0000 0100 0000
00000080: 0540 0000 8000 0000 0440 0000 0200 0000
00000090: 0901 baff 0501 0100 0701 0000 0001 0000
000000a0: 0101 0000 0301 0100 0201 0100 1f01 0100
000000b0: 1040 0000 0000 0100 1140 0000 0000 0000
000000c0: 1240 0000 0000 0000 1340 0000 0000 0000
000000d0: 1b01 3f00 1c01 3f00 1a01 3f00 1201 3f00
000000e0: 1101 3f00 1301 0700 1640 0000 0004 0000
000000f0: 1540 0000 0004 0000 1440 0000 1000 0000

main_split_1_flash u1 [362096]
0 0 0 0 0 0 0 0
0 0 0 0 0 0 0 0
0 0 0 0 0 0 0 0
0 0 0 0 0 0 0 0
0 0 0 0 0 0 0 0
0 0 0 0 0 0 0 0
0 0 0 0 0 0 0 0
0 0 0 0 0 0 0 0
0 0 0 0 0 0 0 0
0 0 0 0 0 0 0 0
0 0 0 0 0 0 0 0
0 0 0 0 0 0 0 0
0 0 0 0 0 0 0 0
0 0 0 0 0 0 0 0
0 0 0 0 0 0 0 0
0 0 0 0 0 0 0 0
0 0 0 0 0 0 0 0
0 0 0 0 0 0 0 0
0 0 0 0 0 0 0 0
0 0 0 0 0 0 0 0
0 0 0 0 0 0 0 0
0 0 0 0 0 0 0 0
0 0 0 0 0 0 0 0
0 0 0 0 0 0 0 0
0 0 0 0 0 0 0 0
0 0 0 0 0 0 0 0
0 0 0 0 0 0 0 0
0 0 0 0 0 0 0 0
0 0 0 0 0 0 0 0
0 0 0 0 0 0 0 0
0 0 0 0 0 0 0 0
0 0 0 0 0 0 0 0
00000000: 0000 0000 0000 0000 0000 0000 0000 0000
00000010: 0000 0000 0000 0000 0000 0000 0000 0000
00000020: 0000 0000 0000 0000 0000 0000 0000 0000
00000030: 0000 0000 0000 0000 0000 0000 0000 0000
00000040: 0000 0000 0000 0000 0000 0000 0000 0000
00000050: 0000 0000 0000 0000 0000 0000 0000 0000
00000060: 0000 0000 0000 0000 0000 0000 0000 0000
00000070: 0000 0000 0000 0000 0000 0000 0000 0000
00000080: 0000 0000 0000 0000 0000 0000 0000 0000
00000090: 0000 0000 0000 0000 0000 0000 0000 0000
000000a0: 0000 0000 0000 0000 0000 0000 0000 0000
000000b0: 0000 0000 0000 0000 0000 0000 0000 0000
000000c0: 0000 0000 0000 0000 0000 0000 0000 0000
000000d0: 0000 0000 0000 0000 0000 0000 0000 0000
000000e0: 0000 0000 0000 0000 0000 0000 0000 0000
000000f0: 0000 0000 0000 0000 0000 0000 0000 0000

main_split_2_command_stream u1 [1356]
67 79 80 49 1 0 16 0
7 24 0 0 0 0 6 16
5 0 0 0 5 0 0 0
5 0 0 0 2 0 75 1
37 64 12 0 232 116 78 96
38 64 0 0 0 0 0 0
36 64 49 0 23 17 198 69
15 1 1 0 0 64 0 0
0 128 0 0 1 64 0 0
0 0 0 0 2 64 0 0
0 0 0 0 3 64 0 0
0 0 0 0 11 1 31 0
12 1 31 0 10 1 31 0
4 1 15 0 6 64 0 0
1 0 0 0 5 64 0 0
0 2 0 0 4 64 0 0
16 0 0 0 9 1 226 255
5 1 1 2 7 1 0 0
31 1 1 0 16 64 0 0
0 0 0 0 17 64 0 0
0 0 0 0 18 64 0 0
0 0 0 0 19 64 0 0
0 0 0 0 27 1 31 0
28 1 31 0 26 1 31 0
18 1 31 0 17 1 31 0
19 1 15 0 22 64 0 0
0 2 0 0 21 64 0 0
0 2 0 0 20 64 0 0
16 0 0 0 24 1 243 255
20 1 65 1 37 1 0 0
38 1 128 255 39 1 127 0
22 1 7 0 21 1 31 0
00000000: 434f 5031 0100 1000 0718 0000 0000 0610
00000010: 0500 0000 0500 0000 0500 0000 0200 4b01
00000020: 2540 0c00 e874 4e60 2640 0000 0000 0000
00000030: 2440 3100 1711 c645 0f01 0100 0040 0000
00000040: 0080 0000 0140 0000 0000 0000 0240 0000
00000050: 0000 0000 0340 0000 0000 0000 0b01 1f00
00000060: 0c01 1f00 0a01 1f00 0401 0f00 0640 0000
00000070: 0100 0000 0540 0000 0002 0000 0440 0000
00000080: 1000 0000 0901 e2ff 0501 0102 0701 0000
00000090: 1f01 0100 1040 0000 0000 0000 1140 0000
000000a0: 0000 0000 1240 0000 0000 0000 1340 0000
000000b0: 0000 0000 1b01 1f00 1c01 1f00 1a01 1f00
000000c0: 1201 1f00 1101 1f00 1301 0f00 1640 0000
000000d0: 0002 0000 1540 0000 0002 0000 1440 0000
000000e0: 1000 0000 1801 f3ff 1401 4101 2501 0000
000000f0: 2601 80ff 2701 7f00 1601 0700 1501 1f00

main_split_3_command_stream u1 [868]
67 79 80 49 1 0 16 0
7 24 0 0 0 0 6 16
5 0 0 0 5 0 0 0
5 0 0 0 2 0 209 0
37 64 12 0 188 115 210 76
38 64 0 0 0 0 0 0
36 64 49 0 184 75 29 66
15 1 1 0 0 64 0 0
0 32 0 0 1 64 0 0
0 0 0 0 2 64 0 0
0 0 0 0 3 64 0 0
0 0 0 0 11 1 15 0
12 1 15 0 10 1 15 0
4 1 31 0 6 64 0 0
1 0 0 0 5 64 0 0
0 2 0 0 4 64 0 0
32 0 0 0 9 1 252 255
5 1 1 2 7 1 0 0
31 1 1 0 16 64 0 0
0 0 0 0 17 64 0 0
0 0 0 0 18 64 0 0
0 0 0 0 19 64 0 0
0 0 0 0 27 1 15 0
28 1 15 0 26 1 15 0
18 1 15 0 17 1 15 0
19 1 31 0 22 64 0 0
1 0 0 0 21 64 0 0
0 2 0 0 20 64 0 0
32 0 0 0 24 1 1 0
20 1 1 1 37 1 0 0
38 1 128 255 39 1 127 0
22 1 15 0 21 1 15 0
00000000: 434f 5031 0100 1000 0718 0000 0000 0610
00000010: 0500 0000 0500 0000 0500 0000 0200 d100
00000020: 2540 0c00 bc73 d24c 2640 0000 0000 0000
00000030: 2440 3100 b84b 1d42 0f01 0100 0040 0000
00000040: 0020 0000 0140 0000 0000 0000 0240 0000
00000050: 0000 0000 0340 0000 0000 0000 0b01 0f00
00000060: 0c01 0f00 0a01 0f00 0401 1f00 0640 0000
00000070: 0100 0000 0540 0000 0002 0000 0440 0000
00000080: 2000 0000 0901 fcff 0501 0102 0701 0000
00000090: 1f01 0100 1040 0000 0000 0000 1140 0000
000000a0: 0000 0000 1240 0000 0000 0000 1340 0000
000000b0: 0000 0000 1b01 0f00 1c01 0f00 1a01 0f00
000000c0: 1201 0f00 1101 0f00 1301 1f00 1640 0000
000000d0: 0100 0000 1540 0000 0002 0000 1440 0000
000000e0: 2000 0000 1801 0100 1401 0101 2501 0000
000000f0: 2601 80ff 2701 7f00 1601 0f00 1501 0f00

main_split_4_command_stream u1 [2000]
67 79 80 49 1 0 16 0
7 24 0 0 0 0 6 16
5 0 0 0 5 0 0 0
5 0 0 0 2 0 236 1
37 64 12 0 155 197 8 124
38 64 0 0 0 0 0 0
36 64 50 0 187 8 13 73
15 1 1 0 0 64 0 0
0 0 0 0 1 64 0 0
0 0 0 0 2 64 0 0
0 0 0 0 3 64 0 0
0 0 0 0 11 1 15 0
12 1 15 0 10 1 15 0
4 1 31 0 6 64 0 0
1 0 0 0 5 64 0 0
0 2 0 0 4 64 0 0
32 0 0 0 9 1 1 0
5 1 1 2 7 1 0 0
31 1 1 0 16 64 0 0
0 160 0 0 17 64 0 0
0 0 0 0 18 64 0 0
0 0 0 0 19 64 0 0
0 0 0 0 27 1 15 0
28 1 15 0 26 1 15 0
18 1 15 0 17 1 15 0
19 1 31 0 22 64 0 0
0 1 0 0 21 64 0 0
0 2 0 0 20 64 0 0
16 0 0 0 24 1 5 0
20 1 65 1 37 1 0 0
38 1 128 255 39 1 127 0
22 1 15 0 21 1 15 0
00000000: 434f 5031 0100 1000 0718 0000 0000 0610
00000010: 0500 0000 0500 0000 0500 0000 0200 ec01
00000020: 2540 0c00 9bc5 087c 2640 0000 0000 0000
00000030: 2440 3200 bb08 0d49 0f01 0100 0040 0000
00000040: 0000 0000 0140 0000 0000 0000 0240 0000
00000050: 0000 0000 0340 0000 0000 0000 0b01 0f00
00000060: 0c01 0f00 0a01 0f00 0401 1f00 0640 0000
00000070: 0100 0000 0540 0000 0002 0000 0440 0000
00000080: 2000 0000 0901 0100 0501 0102 0701 0000
00000090: 1f01 0100 1040 0000 00a0 0000 1140 0000
000000a0: 0000 0000 1240 0000 0000 0000 1340 0000
000000b0: 0000 0000 1b01 0f00 1c01 0f00 1a01 0f00
000000c0: 1201 0f00 1101 0f00 1301 1f00 1640 0000
000000d0: 0001 0000 1540 0000 0002 0000 1440 0000
000000e0: 1000 0000 1801 0500 1401 4101 2501 0000
000000f0: 2601 80ff 2701 7f00 1601 0f00 1501 0f00

main_split_5_command_stream u1 [1496]
67 79 80 49 1 0 16 0
7 24 0 0 0 0 6 16
5 0 0 0 5 0 0 0
5 0 0 0 2 0 110 1
37 64 12 0 149 217 46 113
38 64 0 0 0 0 0 0
36 64 50 0 87 139 88 105
15 1 1 0 0 64 0 0
0 0 0 0 1 64 0 0
0 0 0 0 2 64 0 0
0 0 0 0 3 64 0 0
0 0 0 0 11 1 7 0
12 1 7 0 10 1 7 0
4 1 43 0 6 64 0 0
1 0 0 0 5 64 0 0
96 1 0 0 4 64 0 0
44 0 0 0 9 1 243 255
5 1 1 2 7 1 0 0
31 1 1 0 16 64 0 0
0 13 0 0 17 64 0 0
0 0 0 0 18 64 0 0
0 0 0 0 19 64 0 0
0 0 0 0 27 1 7 0
28 1 7 0 26 1 7 0
18 1 7 0 17 1 7 0
19 1 43 0 22 64 0 0
1 0 0 0 21 64 0 0
96 1 0 0 20 64 0 0
44 0 0 0 24 1 255 255
20 1 1 1 37 1 0 0
38 1 128 255 39 1 127 0
22 1 7 0 21 1 7 0
00000000: 434f 5031 0100 1000 0718 0000 0000 0610
00000010: 0500 0000 0500 0000 0500 0000 0200 6e01
00000020: 2540 0c00 95d9 2e71 2640 0000 0000 0000
00000030: 2440 3200 578b 5869 0f01 0100 0040 0000
00000040: 0000 0000 0140 0000 0000 0000 0240 0000
00000050: 0000 0000 0340 0000 0000 0000 0b01 0700
00000060: 0c01 0700 0a01 0700 0401 2b00 0640 0000
00000070: 0100 0000 0540 0000 6001 0000 0440 0000
00000080: 2c00 0000 0901 f3ff 0501 0102 0701 0000
00000090: 1f01 0100 1040 0000 000d 0000 1140 0000
000000a0: 0000 0000 1240 0000 0000 0000 1340 0000
000000b0: 0000 0000 1b01 0700 1c01 0700 1a01 0700
000000c0: 1201 0700 1101 0700 1301 2b00 1640 0000
000000d0: 0100 0000 1540 0000 6001 0000 1440 0000
000000e0: 2c00 0000 1801 ffff 1401 0101 2501 0000
000000f0: 2601 80ff 2701 7f00 1601 0700 1501 0700

main_split_6_command_stream u1 [1488]
67 79 80 49 1 0 16 0
7 24 0 0 0 0 6 16
5 0 0 0 5 0 0 0
5 0 0 0 2 0 108 1
37 64 12 0 106 166 158 121
38 64 0 0 0 0 0 0
36 64 50 0 141 209 89 92
15 1 1 0 0 64 0 0
0 0 0 0 1 64 0 0
0 0 0 0 2 64 0 0
0 0 0 0 3 64 0 0
0 0 0 0 11 1 7 0
12 1 7 0 10 1 7 0
4 1 51 0 6 64 0 0
1 0 0 0 5 64 0 0
160 1 0 0 4 64 0 0
52 0 0 0 9 1 255 255
5 1 1 2 7 1 0 0
31 1 1 0 16 64 0 0
0 0 0 0 17 64 0 0
0 0 0 0 18 64 0 0
0 0 0 0 19 64 0 0
0 0 0 0 27 1 7 0
28 1 7 0 26 1 7 0
18 1 7 0 17 1 7 0
19 1 51 0 22 64 0 0
1 0 0 0 21 64 0 0
160 1 0 0 20 64 0 0
52 0 0 0 24 1 243 255
20 1 1 1 37 1 0 0
38 1 128 255 39 1 127 0
22 1 7 0 21 1 7 0
00000000: 434f 5031 0100 1000 0718 0000 0000 0610
00000010: 0500 0000 0500 0000 0500 0000 0200 6c01
00000020: 2540 0c00 6aa6 9e79 2640 0000 0000 0000
00000030: 2440 3200 8dd1 595c 0f01 0100 0040 0000
00000040: 0000 0000 0140 0000 0000 0000 0240 0000
00000050: 0000 0000 0340 0000 0000 0000 0b01 0700
00000060: 0c01 0700 0a01 0700 0401 3300 0640 0000
00000070: 0100 0000 0540 0000 a001 0000 0440 0000
00000080: 3400 0000 0901 ffff 0501 0102 0701 0000
00000090: 1f01 0100 1040 0000 0000 0000 1140 0000
000000a0: 0000 0000 1240 0000 0000 0000 1340 0000
000000b0: 0000 0000 1b01 0700 1c01 0700 1a01 0700
000000c0: 1201 0700 1101 0700 1301 3300 1640 0000
000000d0: 0100 0000 1540 0000 a001 0000 1440 0000
000000e0: 3400 0000 1801 f3ff 1401 0101 2501 0000
000000f0: 2601 80ff 2701 7f00 1601 0700 1501 0700

main_split_7_command_stream u1 [3220]
67 79 80 49 1 0 16 0
7 24 0 0 0 0 6 16
5 0 0 0 5 0 0 0
5 0 0 0 2 0 29 3
37 64 12 0 92 180 183 96
38 64 0 0 0 0 0 0
36 64 50 0 11 149 62 107
15 1 1 0 0 64 0 0
0 0 0 0 1 64 0 0
0 0 0 0 2 64 0 0
0 0 0 0 3 64 0 0
0 0 0 0 11 1 7 0
12 1 7 0 10 1 7 0
4 1 51 0 6 64 0 0
1 0 0 0 5 64 0 0
160 1 0 0 4 64 0 0
52 0 0 0 9 1 243 255
5 1 1 2 7 1 0 0
31 1 1 0 16 64 0 0
0 48 0 0 17 64 0 0
0 0 0 0 18 64 0 0
0 0 0 0 19 64 0 0
0 0 0 0 27 1 7 0
28 1 7 0 26 1 7 0
18 1 7 0 17 1 7 0
19 1 51 0 22 64 0 0
1 0 0 0 21 64 0 0
160 1 0 0 20 64 0 0
52 0 0 0 24 1 7 0
20 1 1 1 37 1 0 0
38 1 128 255 39 1 127 0
22 1 7 0 21 1 7 0
00000000: 434f 5031 0100 1000 0718 0000 0000 0610
00000010: 0500 0000 0500 0000 0500 0000 0200 1d03
00000020: 2540 0c00 5cb4 b760 2640 0000 0000 0000
00000030: 2440 3200 0b95 3e6b 0f01 0100 0040 0000
00000040: 0000 0000 0140 0000 0000 0000 0240 0000
00000050: 0000 0000 0340 0000 0000 0000 0b01 0700
00000060: 0c01 0700 0a01 0700 0401 3300 0640 0000
00000070: 0100 0000 0540 0000 a001 0000 0440 0000
00000080: 3400 0000 0901 f3ff 0501 0102 0701 0000
00000090: 1f01 0100 1040 0000 0030 0000 1140 0000
000000a0: 0000 0000 1240 0000 0000 0000 1340 0000
000000b0: 0000 0000 1b01 0700 1c01 0700 1a01 0700
000000c0: 1201 0700 1101 0700 1301 3300 1640 0000
000000d0: 0100 0000 1540 0000 a001 0000 1440 0000
000000e0: 3400 0000 1801 0700 1401 0101 2501 0000
000000f0: 2601 80ff 2701 7f00 1601 0700 1501 0700

main_split_8_command_stream u1 [2820]
67 79 80 49 1 0 16 0
7 24 0 0 0 0 6 16
5 0 0 0 5 0 0 0
5 0 0 0 2 0 185 2
37 64 12 0 100 0 116 81
38 64 0 0 0 0 0 0
36 64 50 0 48 46 90 122
15 1 1 0 0 64 0 0
0 40 0 0 1 64 0 0
0 0 0 0 2 64 0 0
0 0 0 0 3 64 0 0
0 0 0 0 11 1 7 0
12 1 7 0 10 1 7 0
4 1 67 0 6 64 0 0
1 0 0 0 5 64 0 0
32 2 0 0 4 64 0 0
68 0 0 0 9 1 246 255
5 1 1 2 7 1 0 0
31 1 1 0 16 64 0 0
0 0 0 0 17 64 0 0
0 0 0 0 18 64 0 0
0 0 0 0 19 64 0 0
0 0 0 0 27 1 7 0
28 1 7 0 26 1 7 0
18 1 7 0 17 1 7 0
19 1 67 0 22 64 0 0
1 0 0 0 21 64 0 0
32 2 0 0 20 64 0 0
68 0 0 0 24 1 248 255
20 1 1 1 37 1 0 0
38 1 128 255 39 1 127 0
22 1 7 0 21 1 7 0
00000000: 434f 5031 0100 1000 0718 0000 0000 0610
00000010: 0500 0000 0500 0000 0500 0000 0200 b902
00000020: 2540 0c00 6400 7451 2640 0000 0000 0000
00000030: 2440 3200 302e 5a7a 0f01 0100 0040 0000
00000040: 0028 0000 0140 0000 0000 0000 0240 0000
00000050: 0000 0000 0340 0000 0000 0000 0b01 0700
00000060: 0c01 0700 0a01 0700 0401 4300 0640 0000
00000070: 0100 0000 0540 0000 2002 0000 0440 0000
00000080: 4400 0000 0901 f6ff 0501 0102 0701 0000
00000090: 1f01 0100 1040 0000 0000 0000 1140 0000
000000a0: 0000 0000 1240 0000 0000 0000 1340 0000
000000b0: 0000 0000 1b01 0700 1c01 0700 1a01 0700
000000c0: 1201 0700 1101 0700 1301 4300 1640 0000
000000d0: 0100 0000 1540 0000 2002 0000 1440 0000
000000e0: 4400 0000 1801 f8ff 1401 0101 2501 0000
000000f0: 2601 80ff 2701 7f00 1601 0700 1501 0700

main_split_9_command_stream u1 [1552]
67 79 80 49 1 0 16 0
7 24 0 0 0 0 6 16
5 0 0 0 5 0 0 0
5 0 0 0 2 0 124 1
37 64 12 0 86 37 108 111
38 64 0 0 0 0 0 0
36 64 50 0 230 118 82 111
15 1 1 0 0 64 0 0
0 4 0 0 1 64 0 0
0 0 0 0 2 64 0 0
0 0 0 0 3 64 0 0
0 0 0 0 11 1 3 0
12 1 3 0 10 1 3 0
4 1 31 0 6 64 0 0
1 0 0 0 5 64 0 0
128 0 0 0 4 64 0 0
32 0 0 0 9 1 233 255
5 1 1 2 7 1 0 0
31 1 1 0 16 64 0 0
0 6 0 0 17 64 0 0
0 0 0 0 18 64 0 0
0 0 0 0 19 64 0 0
0 0 0 0 27 1 3 0
28 1 3 0 26 1 3 0
18 1 3 0 17 1 3 0
19 1 31 0 22 64 0 0
64 0 0 0 21 64 0 0
128 0 0 0 20 64 0 0
16 0 0 0 24 1 20 0
20 1 65 1 37 1 0 0
38 1 128 255 39 1 127 0
22 1 3 0 21 1 3 0
00000000: 434f 5031 0100 1000 0718 0000 0000 0610
00000010: 0500 0000 0500 0000 0500 0000 0200 7c01
00000020: 2540 0c00 5625 6c6f 2640 0000 0000 0000
00000030: 2440 3200 e676 526f 0f01 0100 0040 0000
00000040: 0004 0000 0140 0000 0000 0000 0240 0000
00000050: 0000 0000 0340 0000 0000 0000 0b01 0300
00000060: 0c01 0300 0a01 0300 0401 1f00 0640 0000
00000070: 0100 0000 0540 0000 8000 0000 0440 0000
00000080: 2000 0000 0901 e9ff 0501 0102 0701 0000
00000090: 1f01 0100 1040 0000 0006 0000 1140 0000
000000a0: 0000 0000 1240 0000 0000 0000 1340 0000
000000b0: 0000 0000 1b01 0300 1c01 0300 1a01 0300
000000c0: 1201 0300 1101 0300 1301 1f00 1640 0000
000000d0: 4000 0000 1540 0000 8000 0000 1440 0000
000000e0: 1000 0000 1801 1400 1401 4101 2501 0000
000000f0: 2601 80ff 2701 7f00 1601 0300 1501 0300
