resources_downloaded/kws_asr/kws_micronet_m_vela_Y256.tflite (tflite, 156768 bytes, 2 tensors)

main_split_1_command_stream u1 [2040]
000000 43 4f 50 31 01 00 10 00 08 30 00 10 00 00 06 10
       67 79 80 49 1 0 16 0 8 48 0 16 0 0 6 16
000010 05 00 00 00 05 00 00 00 05 00 00 00 02 00 f6 01
       5 0 0 0 5 0 0 0 5 0 0 0 2 0 246 1
000020 23 01 00 00 30 01 00 00 30 40 00 00 f0 3c 00 00
       35 1 0 0 48 1 0 0 48 64 0 0 240 60 0 0
000030 31 01 02 00 31 40 00 00 e0 34 01 00 32 40 00 00
       49 1 2 0 49 64 0 0 224 52 1 0 50 64 0 0
000040 50 04 00 00 10 00 00 00 0f 01 01 00 00 40 00 00
       80 4 0 0 16 0 0 0 15 1 1 0 0 64 0 0
000050 00 00 00 00 01 40 00 00 00 00 00 00 02 40 00 00
       0 0 0 0 1 64 0 0 0 0 0 0 2 64 0 0
000060 00 00 00 00 03 40 00 00 00 00 00 00 0b 01 30 00
       0 0 0 0 3 64 0 0 0 0 0 0 11 1 48 0
000070 0c 01 30 00 0a 01 09 00 04 01 00 00 06 40 00 00
       12 1 48 0 10 1 9 0 4 1 0 0 6 64 0 0
000080 01 00 00 00 05 40 00 00 0a 00 00 00 04 40 00 00
       1 0 0 0 5 64 0 0 10 0 0 0 4 64 0 0
000090 01 00 00 00 09 01 fb ff 05 01 01 00 07 01 00 00
       1 0 0 0 9 1 251 255 5 1 1 0 7 1 0 0
0000a0 00 01 04 00 01 01 01 00 03 01 05 00 02 01 02 00
       0 1 4 0 1 1 1 0 3 1 5 0 2 1 2 0
0000b0 1f 01 02 00 10 40 00 00 00 00 00 00 11 40 00 00
       31 1 2 0 16 64 0 0 0 0 0 0 17 64 0 0
0000c0 00 00 00 00 12 40 00 00 00 00 00 00 13 40 00 00
       0 0 0 0 18 64 0 0 0 0 0 0 19 64 0 0
0000d0 00 00 00 00 1b 01 30 00 1c 01 30 00 1a 01 09 00
       0 0 0 0 27 1 48 0 28 1 48 0 26 1 9 0
0000e0 12 01 30 00 11 01 09 00 13 01 0f 00 16 40 00 00
       18 1 48 0 17 1 9 0 19 1 15 0 22 64 0 0
0000f0 a0 00 00 00 15 40 00 00 a0 05 00 00 14 40 00 00
       160 0 0 0 21 64 0 0 160 5 0 0 20 64 0 0

main_split_1_flash u1 [153552]
000000 00 00 00 00 00 00 00 00 00 00 00 00 00 00 00 00
       0 0 0 0 0 0 0 0 0 0 0 0 0 0 0 0
000010 00 00 00 00 00 00 00 00 00 00 00 00 00 00 00 00
       0 0 0 0 0 0 0 0 0 0 0 0 0 0 0 0
000020 00 00 00 00 00 00 00 00 00 00 00 00 00 00 00 00
       0 0 0 0 0 0 0 0 0 0 0 0 0 0 0 0
000030 00 00 00 00 00 00 00 00 00 00 00 00 00 00 00 00
       0 0 0 0 0 0 0 0 0 0 0 0 0 0 0 0
000040 00 00 00 00 00 00 00 00 00 00 00 00 00 00 00 00
       0 0 0 0 0 0 0 0 0 0 0 0 0 0 0 0
000050 00 00 00 00 00 00 00 00 00 00 00 00 00 00 00 00
       0 0 0 0 0 0 0 0 0 0 0 0 0 0 0 0
000060 00 00 00 00 00 00 00 00 00 00 00 00 00 00 00 00
       0 0 0 0 0 0 0 0 0 0 0 0 0 0 0 0
000070 00 00 00 00 00 00 00 00 00 00 00 00 00 00 00 00
       0 0 0 0 0 0 0 0 0 0 0 0 0 0 0 0
000080 00 00 00 00 00 00 00 00 00 00 00 00 00 00 00 00
       0 0 0 0 0 0 0 0 0 0 0 0 0 0 0 0
000090 00 00 00 00 00 00 00 00 00 00 00 00 00 00 00 00
       0 0 0 0 0 0 0 0 0 0 0 0 0 0 0 0
0000a0 00 00 00 00 00 00 00 00 00 00 00 00 00 00 00 00
       0 0 0 0 0 0 0 0 0 0 0 0 0 0 0 0
0000b0 00 00 00 00 00 00 00 00 00 00 00 00 00 00 00 00
       0 0 0 0 0 0 0 0 0 0 0 0 0 0 0 0
0000c0 00 00 00 00 00 00 00 00 00 00 00 00 00 00 00 00
       0 0 0 0 0 0 0 0 0 0 0 0 0 0 0 0
0000d0 00 00 00 00 00 00 00 00 00 00 00 00 00 00 00 00
       0 0 0 0 0 0 0 0 0 0 0 0 0 0 0 0
0000e0 00 00 00 00 00 00 00 00 00 00 00 00 00 00 00 00
       0 0 0 0 0 0 0 0 0 0 0 0 0 0 0 0
0000f0 00 00 00 00 00 00 00 00 00 00 00 00 00 00 00 00
       0 0 0 0 0 0 0 0 0 0 0 0 0 0 0 0
