resources_downloaded/inference_runner/dnn_s_quantized_vela_H128.tflite (tflite, 91216 bytes, 2 tensors)

main_split_1_command_stream u1 [2236]
0	0x43	67
1	0x4f	79
2	0x50	80
3	0x31	49
4	0x01	1
5	0x00	0
6	0x10	16
7	0x00	0
8	0x07	7
9	0x18	24
10	0x00	0
11	0x00	0
12	0x00	0
13	0x00	0
14	0x06	6
15	0x10	16
16	0x05	5
17	0x00	0
18	0x00	0
19	0x00	0
20	0x05	5
21	0x00	0
22	0x00	0
23	0x00	0
24	0x05	5
25	0x00	0
26	0x00	0
27	0x00	0
28	0x02	2
29	0x00	0
30	0x27	39
31	0x02	2
32	0x0f	15
33	0x01	1
34	0x01	1
35	0x00	0
36	0x00	0
37	0x40	64
38	0x00	0
39	0x00	0
40	0xf0	240
41	0x03	3
42	0x00	0
43	0x00	0
44	0x01	1
45	0x40	64
46	0x00	0
47	0x00	0
48	0x00	0
49	0x00	0
50	0x00	0
51	0x00	0
52	0x02	2
53	0x40	64
54	0x00	0
55	0x00	0
56	0x00	0
57	0x00	0
58	0x00	0
59	0x00	0
60	0x03	3
61	0x40	64
62	0x00	0
63	0x00	0
64	0x00	0
65	0x00	0
66	0x00	0
67	0x00	0
68	0x0b	11
69	0x01	1
70	0x00	0
71	0x00	0
72	0x0c	12
73	0x01	1
74	0x00	0
75	0x00	0
76	0x0a	10
77	0x01	1
78	0x00	0
79	0x00	0
80	0x04	4
81	0x01	1
82	0xf9	249
83	0x00	0
84	0x06	6
85	0x40	64
86	0x00	0
87	0x00	0
88	0x01	1
89	0x00	0
90	0x00	0
91	0x00	0
92	0x05	5
93	0x40	64
94	0x00	0
95	0x00	0
96	0xfa	250
97	0x00	0
98	0x00	0
99	0x00	0
100	0x04	4
101	0x40	64
102	0x00	0
103	0x00	0
104	0xfa	250
105	0x00	0
106	0x00	0
107	0x00	0
108	0x09	9
109	0x01	1
110	0x65	101
111	0x00	0
112	0x05	5
113	0x01	1
114	0x01	1
115	0x00	0
116	0x07	7
117	0x01	1
118	0x00	0
119	0x00	0
120	0x00	0
121	0x01	1
122	0x00	0
123	0x00	0
124	0x01	1
125	0x01	1
126	0x00	0
127	0x00	0
128	0x03	3
129	0x01	1
130	0x00	0
131	0x00	0
132	0x02	2
133	0x01	1
134	0x00	0
135	0x00	0
136	0x1f	31
137	0x01	1
138	0x01	1
139	0x00	0
140	0x10	16
141	0x40	64
142	0x00	0
143	0x00	0
144	0x00	0
145	0x00	0
146	0x00	0
147	0x00	0
148	0x11	17
149	0x40	64
150	0x00	0
151	0x00	0
152	0x00	0
153	0x00	0
154	0x00	0
155	0x00	0
156	0x12	18
157	0x40	64
158	0x00	0
159	0x00	0
160	0x00	0
161	0x00	0
162	0x00	0
163	0x00	0
164	0x13	19
165	0x40	64
166	0x00	0
167	0x00	0
168	0x00	0
169	0x00	0
170	0x00	0
171	0x00	0
172	0x1b	27
173	0x01	1
174	0x00	0
175	0x00	0
176	0x1c	28
177	0x01	1
178	0x00	0
179	0x00	0
180	0x1a	26
181	0x01	1
182	0x00	0
183	0x00	0
184	0x12	18
185	0x01	1
186	0x00	0
187	0x00	0
188	0x11	17
189	0x01	1
190	0x00	0
191	0x00	0
192	0x13	19
193	0x01	1
194	0x8f	143
195	0x00	0
196	0x16	22
197	0x40	64
198	0x00	0
199	0x00	0
200	0x10	16
201	0x00	0
202	0x00	0
203	0x00	0
204	0x15	21
205	0x40	64
206	0x00	0
207	0x00	0
208	0x90	144
209	0x00	0
210	0x00	0
211	0x00	0
212	0x14	20
213	0x40	64
214	0x00	0
215	0x00	0
216	0x10	16
217	0x00	0
218	0x00	0
219	0x00	0
220	0x18	24
221	0x01	1
222	0x80	128
223	0xff	255
224	0x14	20
225	0x01	1
226	0x41	65
227	0x00	0
228	0x21	33
229	0x01	1
230	0x00	0
231	0x00	0
232	0x20	32
233	0x01	1
234	0x00	0
235	0x00	0
236	0x22	34
237	0x01	1
238	0x00	0
239	0x00	0
240	0x28	40
241	0x01	1
242	0x00	0
243	0x00	0
244	0x20	32
245	0x40	64
246	0x00	0
247	0x00	0
248	0xa0	160
249	0x1b	27
250	0x00	0
251	0x00	0
252	0x21	33
253	0x40	64
254	0x00	0
255	0x00	0

main_split_1_flash u1 [87504]
0	0x00	0
1	0x00	0
2	0x00	0
3	0x00	0
4	0x00	0
5	0x00	0
6	0x00	0
7	0x00	0
8	0x00	0
9	0x00	0
10	0x00	0
11	0x00	0
12	0x00	0
13	0x00	0
14	0x00	0
15	0x00	0
16	0x00	0
17	0x00	0
18	0x00	0
19	0x00	0
20	0x00	0
21	0x00	0
22	0x00	0
23	0x00	0
24	0x00	0
25	0x00	0
26	0x00	0
27	0x00	0
28	0x00	0
29	0x00	0
30	0x00	0
31	0x00	0
32	0x00	0
33	0x00	0
34	0x00	0
35	0x00	0
36	0x00	0
37	0x00	0
38	0x00	0
39	0x00	0
40	0x00	0
41	0x00	0
42	0x00	0
43	0x00	0
44	0x00	0
45	0x00	0
46	0x00	0
47	0x00	0
48	0x00	0
49	0x00	0
50	0x00	0
51	0x00	0
52	0x00	0
53	0x00	0
54	0x00	0
55	0x00	0
56	0x00	0
57	0x00	0
58	0x00	0
59	0x00	0
60	0x00	0
61	0x00	0
62	0x00	0
63	0x00	0
64	0x00	0
65	0x00	0
66	0x00	0
67	0x00	0
68	0x00	0
69	0x00	0
70	0x00	0
71	0x00	0
72	0x00	0
73	0x00	0
74	0x00	0
75	0x00	0
76	0x00	0
77	0x00	0
78	0x00	0
79	0x00	0
80	0x00	0
81	0x00	0
82	0x00	0
83	0x00	0
84	0x00	0
85	0x00	0
86	0x00	0
87	0x00	0
88	0x00	0
89	0x00	0
90	0x00	0
91	0x00	0
92	0x00	0
93	0x00	0
94	0x00	0
95	0x00	0
96	0x00	0
97	0x00	0
98	0x00	0
99	0x00	0
100	0x00	0
101	0x00	0
102	0x00	0
103	0x00	0
104	0x00	0
105	0x00	0
106	0x00	0
107	0x00	0
108	0x00	0
109	0x00	0
110	0x00	0
111	0x00	0
112	0x00	0
113	0x00	0
114	0x00	0
115	0x00	0
116	0x00	0
117	0x00	0
118	0x00	0
119	0x00	0
120	0x00	0
121	0x00	0
122	0x00	0
123	0x00	0
124	0x00	0
125	0x00	0
126	0x00	0
127	0x00	0
128	0x00	0
129	0x00	0
130	0x00	0
131	0x00	0
132	0x00	0
133	0x00	0
134	0x00	0
135	0x00	0
136	0x00	0
137	0x00	0
138	0x00	0
139	0x00	0
140	0x00	0
141	0x00	0
142	0x00	0
143	0x00	0
144	0x00	0
145	0x00	0
146	0x00	0
147	0x00	0
148	0x00	0
149	0x00	0
150	0x00	0
151	0x00	0
152	0x00	0
153	0x00	0
154	0x00	0
155	0x00	0
156	0x00	0
157	0x00	0
158	0x00	0
159	0x00	0
160	0x00	0
161	0x00	0
162	0x00	0
163	0x00	0
164	0x00	0
165	0x00	0
166	0x00	0
167	0x00	0
168	0x00	0
169	0x00	0
170	0x00	0
171	0x00	0
172	0x00	0
173	0x00	0
174	0x00	0
175	0x00	0
176	0x00	0
177	0x00	0
178	0x00	0
179	0x00	0
180	0x00	0
181	0x00	0
182	0x00	0
183	0x00	0
184	0x00	0
185	0x00	0
186	0x00	0
187	0x00	0
188	0x00	0
189	0x00	0
190	0x00	0
191	0x00	0
192	0x00	0
193	0x00	0
194	0x00	0
195	0x00	0
196	0x00	0
197	0x00	0
198	0x00	0
199	0x00	0
200	0x00	0
201	0x00	0
202	0x00	0
203	0x00	0
204	0x00	0
205	0x00	0
206	0x00	0
207	0x00	0
208	0x00	0
209	0x00	0
210	0x00	0
211	0x00	0
212	0x00	0
213	0x00	0
214	0x00	0
215	0x00	0
216	0x00	0
217	0x00	0
218	0x00	0
219	0x00	0
220	0x00	0
221	0x00	0
222	0x00	0
223	0x00	0
224	0x00	0
225	0x00	0
226	0x00	0
227	0x00	0
228	0x00	0
229	0x00	0
230	0x00	0
231	0x00	0
232	0x00	0
233	0x00	0
234	0x00	0
235	0x00	0
236	0x00	0
237	0x00	0
238	0x00	0
239	0x00	0
240	0x00	0
241	0x00	0
242	0x00	0
243	0x00	0
244	0x00	0
245	0x00	0
246	0x00	0
247	0x00	0
248	0x00	0
249	0x00	0
250	0x00	0
251	0x00	0
252	0x00	0
253	0x00	0
254	0x00	0
255	0x00	0
